app/src/main/assets/IWH_model_28.tflite (tflite, 627072 bytes, 12 tensors)

conv2d_4/Conv2D_bias f4 [32]
-0.00034133715 0.02295946 0.03193958 0.0018915221 0.008043195 0.009667659 -0.00866379 -0.025620649
0.001085034 0.03843249 0.0026012263 -0.015967304 -0.03355162 0.022084858 -0.013775114 -0.01169323
-0.013951797 0.015927805 -0.002451855 0.007383202 -0.04386402 0.00029626928 -0.0069115967 0.055367682
0.014306345 -0.08470731 0.0031217015 -0.0023720765 0.01346623 -0.02826911 0.030451903 -0.0053778584
00000000: 7ff5 b2b9 7a15 bc3c 14d3 023d f3ec f73a
00000010: 9bc7 033c 1a65 1e3c 92f2 0dbc 65e2 d1bc
00000020: b337 8e3a 636b 1d3d 5679 2a3b ddcd 82bc
00000030: 6c6d 09bd 4eeb b43c 04b1 61bc f694 3fbc
00000040: 1496 64bc 077b 823c 4daf 20bb caee f13b
00000050: c2aa 33bd 9754 9b39 ad7a e2bb 39c9 623d
00000060: 2965 6a3c 077b adbd 7695 4c3b d774 1bbb
00000070: 76a1 5c3c 9f94 e7bc 4576 f93c bf38 b0bb

conv2d_4/kernel f4 [32, 3, 3, 3]
-0.04067189 0.03984577 -0.09187662 0.04713597 -0.06855 -0.16915828 -0.1116813 -0.13113092
-0.17410658 0.057000026 0.001263146 -0.04454736 -0.13195927 -0.050231166 0.08566801 0.13265061
0.07997602 -0.003776349 0.04321087 0.10210633 -0.11955294 0.13835122 -0.07566411 0.06253135
0.05982394 0.14118227 0.037939634 0.07459906 0.11139276 0.013285442 -0.08158934 -0.09633354
-0.1274339 0.04596074 0.074554585 -0.03907121 -0.039082177 0.067066126 0.16188838 0.076092035
-0.067314066 0.030684516 -0.14137751 -0.06639605 0.04722395 0.06950759 0.13052891 -0.019731797
-0.009067394 -0.11457889 0.03490777 -0.12941279 0.013041733 -0.068292215 0.07945636 0.018421834
0.07029737 -0.02955732 0.12852474 0.059595935 0.07897429 -0.06484971 0.09141269 0.12422939
-0.013521097 -0.0063013295 -0.123463035 0.00899585 0.02507414 0.017949682 -0.11369319 0.04486261
-0.02890857 -0.03608196 -0.024339112 0.05436452 -0.113199785 -0.04641041 0.004825239 -0.13302931
-0.102595024 0.021293236 -0.102694176 -0.1186377 0.09596093 0.0648299 -0.11639197 0.09075478
0.063894756 -0.08673403 0.026468096 0.11714256 0.13374297 0.025796749 -0.024821531 -0.115055494
0.026956161 -0.11745267 -0.116177395 -0.017491136 0.13901682 0.06528622 0.011309974 0.0008785184
-0.014729418 -0.1375923 -0.009858213 -0.109470494 -0.12227041 0.13952397 0.10223713 -0.044212002
0.10593883 -0.08619278 0.04036205 0.055771142 0.03561017 0.0665582 0.07301697 -0.060330164
-0.03288572 0.05068359 0.11688679 -0.13018765 0.056110416 -0.09596372 -0.0932274 0.05963137
-0.046783056 -0.049116313 -0.12794325 0.11245751 -0.09661412 -0.04949613 0.038990114 -0.022897698
-0.11945529 0.100261904 0.12505183 -0.025705375 -0.04920608 -0.044139687 0.021792088 -0.058837526
0.055655412 0.055683542 0.13677293 -0.0778194 -0.024276802 -0.06452657 0.1296046 -0.06325776
0.15044782 -0.011405967 -0.007346165 0.052095868 0.12942217 -0.13526675 -0.10963561 -0.064595915
-0.063677005 -0.028217187 -0.10055156 0.040289205 0.030219344 -0.1362963 0.1438102 0.10869752
-0.04360353 -0.030231716 -0.05907837 0.10883336 -0.064608976 -0.113390855 0.08394536 0.035949603
0.014014491 0.023703799 -0.1031034 -0.15788747 -0.12732965 0.11705552 -0.10881494 0.065324865
0.13326699 -0.093265265 0.11390523 0.1121412 -0.12352064 0.0713883 0.12460593 -0.038369443
-0.095458105 0.05696598 -0.13935909 0.114339285 0.041193552 0.031792436 -0.10290659 0.087094694
0.04043578 0.107114576 0.051613826 -0.06978253 0.089211464 0.11457736 -0.14473979 -0.07133459
0.06764096 0.015388173 -0.063069835 -0.17576 -0.14029078 0.07500456 -0.1314331 0.020450484
0.022248449 0.14098245 0.06885027 -0.042098742 0.12167154 -0.06469174 -0.12512948 -0.04781995
0.10614088 -0.12614477 0.06072126 0.042632684 0.10418585 -0.11590779 -0.002242268 0.09879944
-0.06678815 0.02837938 -0.14470226 -0.07391473 -0.12468451 0.11790803 -0.088406734 0.011058819
-0.0362472 0.01705057 0.14661439 -0.08363381 -0.028017588 -0.07982567 0.09543831 -0.06773832
0.120495364 -0.03344348 -0.049191937 -0.09318981 0.007288503 0.13046181 -0.07516228 -0.064595886
00000000: 9197 26bd 5135 233d cf29 bcbd a611 413d
00000010: f163 8cbd d437 2dbe 2ab9 e4bd 2f47 06be
00000020: ff48 32be dc78 693d 2690 a53a 4b77 36bd
00000030: 5520 07be 32bf 4dbd b672 af3d 90d5 073e
00000040: 78ca a33d 9f7c 77bb e2fd 303d 201d d13d
00000050: 2cd8 f4bd f1ab 0d3e c9f5 9abd 7010 803d
00000060: f309 753d 1692 103e 9766 1b3d 64c7 983d
00000070: e321 e43d 2fab 593c 5018 a7bd 854a c5bd
00000080: 087e 02be 5441 3c3d 13b0 983d 2209 20bd
00000090: a214 20bd f759 893d 11c6 253e 24d6 9b3d
000000a0: f5db 89bd 185e fb3c 44c5 10be a7fa 87bd
000000b0: e76d 413d ff59 8e3d 5fa9 053e 94a4 a1bc
000000c0: 688f 14bc 56a8 eabd 73fb 0e3d c984 04be
000000d0: feac 553c cadc 8bbd 04ba a23d 63e9 963c
000000e0: 11f8 8f3d 3122 f2bc fd9b 033e de1a 743d
000000f0: 46bd a13d edcf 84bd 9436 bb3d fa6b fe3d
00000100: 9787 5dbc 627b cebb 30da fcbd 5463 133c
00000110: 4868 cd3c 360b 933c fad7 e8bd dbc1 373d
00000120: aad1 ecbc adca 13bd d162 c7bc 55ad 5e3d
00000130: 4ad5 e7bd d818 3ebd 0a1d 9e3b d638 08be
00000140: 571d d2bd 276f ae3c 5351 d2bd 53f8 f2bd
00000150: 2a87 c43d 8ac5 843d ea5e eebd a4dd b93d
00000160: 41db 823d 9ca1 b1bd 9fd3 d83c 70e8 ef3d
00000170: ebf3 083e b453 d33c 8656 cbbc 37a2 ebbd
00000180: 2bd3 dc3c 078b f0bd 6aee edbd 9249 8fbc
00000190: 6d5a 0e3e c8b4 853d 784d 393c 5f4c 663a
000001a0: a853 71bc ffe4 0cbe 5884 21bc 1132 e0bd
000001b0: e968 fabd 5fdf 0e3e b361 d13d a517 35bd
000001c0: 75f6 d83d d785 b0bd ad52 253d 4870 643d
000001d0: f8db 113d aa4f 883d ec89 953d c31c 77bd
000001e0: 2db3 06bd 9999 4f3d 5762 ef3d e94f 05be
000001f0: 09d4 653d a088 c4bd 02ee bebd 0640 743d
00000200: 979f 3fbd 302e 49bd 8e03 03be 1f50 e63d
00000210: a0dd c5bd 74bc 4abd 19b4 1f3d f493 bbbc
00000220: faa4 f4bd 1d56 cd3d 960d 003e 1494 d2bc
00000230: 518c 49bd d1cb 34bd 5285 b23c 9eff 70bd
00000240: eef6 633d 6d14 643d 340e 0c3e c75f 9fbd
00000250: 25e0 c6bc 8226 84bd 11b7 043e 498d 81bd
00000260: fe0e 1a3e 18e0 3abc 19b8 f0bb 7a62 553d
00000270: 3f87 043e 5e83 0abe a288 e0bd dd4a 84bd
00000280: 1769 82bd bb27 e7bc faed cdbd 4b06 253d
00000290: 8f8e f73c 4291 0bbe fb42 133e ce9c de3d
000002a0: 9d99 32bd 81a8 f7bc 29fc 71bd 06e4 de3d
000002b0: b651 84bd 7739 e8bd 8beb ab3d e43f 133d
000002c0: 099d 653c 782e c23c e027 d3bd 41ad 21be
000002d0: b462 02be ceba ef3d 5eda debd 0bc9 853d
000002e0: 2477 083e dc01 bfbd 2547 e93d 49aa e53d
000002f0: 64f8 fcbd 0734 923d 6531 ff3d 4729 1dbd
00000300: 8a7f c3bd 2955 693d 26b4 0ebe b72a ea3d
00000310: 92ba 283d c938 023d b1c0 d2bd b45e b23d
00000320: fd9f 253d e35e db3d 0569 533d 25ea 8ebd
00000330: 80b4 b63d 89a7 ea3d ab36 14be df17 92bd
00000340: 5887 8a3d ad1e 7c3c c22a 81bd 6efa 33be
00000350: 63a8 0fbe fe9b 993d 6696 06be c687 a73c
00000360: 6142 b63c b45d 103e 5f01 8d3d bb6f 2cbd
00000370: ee2e f93d 1a7d 84bd f121 00be dade 43bd
00000380: 6460 d93d 182c 01be dbb6 783d 9c9f 2e3d
00000390: 645f d53d 1061 edbd 04f3 12bb 5c57 ca3d
000003a0: 3ac8 88bd e07b e83c d42c 14be 9b60 97bd
000003b0: 985a ffbd c479 f13d 970e b5bd 0c30 353c
000003c0: f277 14bd a3ad 8b3c 1522 163e 3448 abbd
000003d0: 2485 e5bc a47b a3bd 2975 c33d 63ba 8abd
000003e0: 46c6 f63d 08fc 08bd 7c7d 49bd 4dda bebd
000003f0: 65d4 ee3b c897 053e aeee 99bd d94a 84bd

conv2d_5/Conv2D_bias f4 [64]
-0.0033941742 -0.031992782 -0.0068079815 -0.005434167 -0.005691526 -0.0028500883 -0.0049593407 -0.01211143
-0.03078007 -0.008775202 -0.0076931193 -0.014451297 -0.009331707 -0.008727054 -0.011112844 -0.018768549
-0.027160767 -0.008558087 -0.0062437826 -0.018113844 -0.0073135365 -0.005654172 -0.021576462 -0.0082444865
0.008124651 -0.006056037 -0.006980471 -0.019774806 -0.015140926 0.009216063 -0.012381093 -0.013343667
-0.010002617 -0.0124696195 -0.017402455 -0.019083079 -0.0011513109 -0.013557523 -0.017041655 -0.014689067
-0.005527905 -0.011271082 -0.011478635 -0.006772239 -0.007029394 -0.0007612062 -0.0054664128 -0.012346471
0.010266558 -0.00086789834 -0.012823961 -0.0018426983 -0.006458844 -0.016220743 -0.020613067 -0.0386976
0.005811441 0.0028966784 -0.018728953 -0.0054932646 0.00084715046 -0.0031310355 -0.0048255823 -0.009105456
00000000: cb70 5ebb dd0a 03bd 7d15 dfbb 1911 b2bb
00000010: fb7f babb 8cc8 3abb f781 a2bb 056f 46bc
00000020: 7c26 fcbc ddc5 0fbc 9016 fcbb 22c5 6cbc
00000030: 04e4 18bc ebfb 0ebc a512 36bc 80c0 99bc
00000040: 4280 debc 3837 0cbc a598 ccbb 7c63 94bc
00000050: 64a6 efbb a246 b9bb 1fc1 b0bc e213 07bc
00000060: 421d 053c b871 c6bb 6fbc e4bb c6fe a1bc
00000070: a611 78bc f8fe 163c 11da 4abc 659f 5abc
00000080: 04e2 23bc 604d 4cbc 988f 8ebc 1e54 9cbc
00000090: 95e7 96ba 5f20 5ebc f19a 8bbc 6aaa 70bc
000000a0: 6e23 b5bb 58aa 38bc e210 3cbc a9e9 ddbb
000000b0: d556 e6bb af8b 47ba 981f b3bb da48 4abc
000000c0: 1135 283c ac83 63ba 971b 52bc b286 f1ba
000000d0: b6a4 d3bb 5de1 84bc bcdc a8bc 6081 1ebd
000000e0: e76d be3b 33d6 3d3b 766d 99bc d800 b4bb
000000f0: 4e13 5e3a 0f32 4dbb eb1f 9ebb 0d2f 15bc

conv2d_5/kernel f4 [64, 3, 3, 32]
-0.043626584 -0.072072454 -0.044687428 -0.043414604 0.030967597 -0.019593617 0.025217665 0.019539986
0.056373224 0.013876829 0.12628826 -0.045049023 -0.0044077025 -0.095889784 0.054654013 -0.029957155
0.08222365 -0.07859325 0.06561781 0.098182574 0.0027842636 -0.006694924 0.06984994 -0.02317276
0.033231072 -0.061568595 -0.013382203 -0.017051866 -0.07570296 0.049089782 -0.014339566 0.055581793
-0.021990778 -0.0018275894 -0.043580934 0.074812606 0.049637236 0.05089941 0.04700753 0.07604114
-0.06356267 0.069243304 -0.10601669 -0.099988654 0.04735294 0.02845426 0.06454272 -0.09948114
-0.029763592 0.11740423 0.065426044 0.13399704 -0.07117637 -0.07315424 0.08744813 -0.03222128
-0.119228356 -0.0628561 0.035555467 0.109014325 -0.0045800493 -0.06427281 -0.08315984 -0.04166074
-0.031701252 -0.06380791 0.034997262 0.02378011 -0.08557363 -0.010513134 -0.0637237 0.085593365
-0.008272387 -0.046866253 -0.022607984 -0.0012731473 0.0349909 0.054663878 0.10887134 -0.008428676
-0.11402775 -0.15969126 0.059744257 -0.03060643 -0.03245735 -0.023773683 -0.075065985 -0.081386685
-0.078773335 -0.012296519 -0.038123526 -0.0017560223 0.05331206 -0.029670944 -0.040743776 0.019044401
0.025190348 0.0241595 -0.03452843 0.0036861424 -0.0750523 -0.045108013 -0.020026986 -0.06693227
0.100436755 0.019371225 0.13708155 0.03340326 0.047503963 0.0069930684 0.01894942 0.037975255
0.060262103 0.07023721 0.005513479 0.18101643 -0.06630887 -0.0030031435 -0.0009778196 0.035577536
0.09078719 -0.03959707 -0.0036670547 -0.00033462365 -0.028506285 -0.050544534 -0.07701353 0.04718769
-0.105885014 0.04007677 0.050569076 0.0026459359 0.014248222 0.023560353 -0.05458909 0.060223952
0.068536155 0.042122554 0.048715908 -0.021366848 -0.074970715 0.0031879242 0.089069694 -0.06373461
0.06269748 -0.053986777 -0.060804524 -0.0060722595 0.08365935 -0.07009501 0.0734708 -0.029951064
0.090501495 -0.02226785 -0.018856226 0.011387082 -0.012722933 0.059594404 0.03382643 0.035692874
0.03467667 -0.057257924 -0.071532845 0.09186132 0.04214112 0.06868979 -0.028326469 -0.024093358
0.04975038 0.024209889 0.0001518078 -0.118359745 0.032441676 -2.5958405e-05 0.0859405 -0.03742242
-0.06358317 -0.11584089 0.025581308 -0.07654755 -0.0849933 0.04863009 -0.018789092 0.026018409
0.044626787 0.025851045 0.03427193 0.015857285 -0.053813208 -0.036246765 0.052786566 0.030156244
-0.022705015 0.07147682 0.05135943 0.024364969 0.05678331 0.02816504 0.021473454 -0.02310433
0.050732784 -0.07382985 0.049243618 -0.041757382 0.050245717 0.0781226 -0.041488197 -0.085171215
0.017711803 0.094196334 0.04409801 -0.006036478 -0.055237822 0.106433675 0.022464687 -0.026066918
0.05565043 -0.011905702 0.051291686 -0.027133616 0.02697123 -0.031205392 -0.024756154 0.023314985
0.039221205 -0.011733014 -0.032308295 -0.058990873 0.089379966 -0.021890089 0.043241654 -0.034085277
0.023706112 -0.0119528035 0.097479805 0.07380781 -0.13387148 0.005120846 0.0028925906 0.017495902
-0.041334003 0.080767386 -0.056788746 -0.0034021446 0.0078044115 0.068091325 -0.023962496 -0.038853362
0.14816518 0.060436413 0.02798566 0.04414186 -0.027072802 -0.031241596 0.105485685 -0.07123559
00000000: cab1 32bd b99a 93bd 2a0a 37bd 83d3 31bd
00000010: c2af fd3c cb82 a0bc 4795 ce3c 5212 a03c
00000020: 9ce7 663d a45b 633c b651 013e 5385 38bd
00000030: 7d6e 90bb dd61 c4bd e3dc 5f3d b568 f5bc
00000040: df64 a83d 7ff5 a0bd a162 863d f213 c93d
00000050: 3178 363b 1861 dbbb 7c0d 8f3d cdd4 bdbc
00000060: 4e1d 083d 5a2f 7cbd 0741 5bbc 5bb0 8bbc
00000070: 270a 9bbd 5e12 493d 80f0 6abc bca9 633d
00000080: 0126 b4bc b98b efba ec81 32bd 5a37 993d
00000090: 6a50 4b3d e67b 503d f88a 403d 75bb 9b3d
000000a0: 252d 82bd 6fcf 8d3d 471f d9bd dac6 ccbd
000000b0: 28f5 413d e918 e93c f92e 843d c5bc cbbd
000000c0: c7d2 f3bc a171 f03d 17fe 853d 8536 093e
000000d0: ebc4 91bd e4d1 95bd 0118 b33d 76fa 03bd
000000e0: ff2d f4bd b3ba 80bd 9ca2 113d e742 df3d
000000f0: 3d14 96bb 77a1 83bd b54f aabd 74a4 2abd
00000100: 2cd9 01bd b9ad 82bd 4a59 0f3d 81ce c23c
00000110: 3a41 afbd 483f 2cbc 9281 82bd 934b af3d
00000120: e888 07bc d4f6 3fbd 6134 b9bc bcdf a6ba
00000130: 9e52 0f3d 3be7 5f3d f0f7 de3d 6e18 0abc
00000140: 6287 e9bd 1b86 23be 65b6 743d 56ba fabc
00000150: 00f2 04bd 07c1 c2bc 32bc 99bd 10ae a6bd
00000160: ea53 a1bd 5777 49bc 6a27 1cbd 552a e6ba
00000170: bf5d 5a3d 7b10 f3bc f2e2 26bd 0103 9c3c
00000180: fd5b ce3c 25ea c53c af6d 0dbd 3593 713b
00000190: 05b5 99bd 2ec3 38bd a20f a4bc c913 89bd
000001a0: c9b1 cd3d 67b0 9e3c 1b5f 0c3e dbd1 083d
000001b0: 8493 423d 1c26 e53b d03b 9b3c f18b 1b3d
000001c0: 65d5 763d 87d8 8f3d 6aaa b43b 5f5c 393e
000001d0: f2cc 87bd 63d0 44bb 2e2a 80ba c0b9 113d
000001e0: a2ee b93d 8a30 22bd f852 70bb 6d70 afb9
000001f0: 0386 e9bc c907 4fbd 45b9 9dbd e147 413d
00000200: 3eda d8bd 8a27 243d 8521 4f3d 7067 2d3b
00000210: 6071 693c a401 c13c cf98 5fbd 64ad 763d
00000220: af5c 8c3d b388 2c3d 558a 473d 8709 afbc
00000230: 3f8a 99bd 7eec 503b 2c6a b63d 4b87 82bd
00000240: 8967 803d 3d21 5dbd 2a0e 79bd cef9 c6bb
00000250: 9855 ab3d f98d 8fbd dc77 963d ef5b f5bc
00000260: d958 b93d 116b b6bc 5f78 9abc e290 3a3c
00000270: d973 50bc 4319 743d 958d 0a3d b132 123d
00000280: 2009 0e3d 4987 6abd d07f 92bd ca21 bc3d
00000290: 2b9c 2c3d 3cad 8c3d e90c e8bc 6f5f c5bc
000002a0: 0ec7 4b3d d153 c63c 992e 1f39 9866 f2bd
000002b0: 90e1 043d 40c1 d9b7 9301 b03d 4048 19bd
000002c0: e537 82bd fd3d edbd e48f d13c f6c4 9cbd
000002d0: f810 aebd 5830 473d 95eb 99bc 8f24 d53c
000002e0: 94ca 363d 92c5 d33c b960 0c3d 23e7 813c
000002f0: 3d6b 5cbd 7d77 14bd ba36 583d 3a0a f73c
00000300: deff b9bc 7062 923d 445e 523d 0b99 c73c
00000310: 9e95 683d 5fba e63c 19e9 af3c 4b45 bdbc
00000320: 2ecd 4f3d 1b34 97bd adb3 493d ca09 2bbd
00000330: 74ce 4d3d befe 9f3d 87ef 29bd 3f6e aebd
00000340: 5818 913c 02ea c03d 1da0 343d a6cd c5bb
00000350: 0e41 62bd e6f9 d93d dd07 b83c 4a8a d5bc
00000360: b5f1 633d 2210 43bc 3b17 523d 5147 debc
00000370: c5f2 dc3c 73a2 ffbc 6bcd cabc 11ff be3c
00000380: 6aa6 203d d43b 40bc b455 04bd 6aa0 71bd
00000390: d80c b73d d852 b3bc 291e 313d 019d 0bbd
000003a0: 5233 c23c b1d5 43bc 7ea3 c73d 8d28 973d
000003b0: 9b15 09be c5cc a73b 9e91 3d3b 9153 8f3c
000003c0: d84d 29bd 5f69 a53d 519b 68bd 84f6 5ebb
000003d0: 26bc ff3b 7773 8b3d ff4c c4bc b424 1fbd
000003e0: 9db8 173e 2c8c 773d 2f42 e53c 18ce 343d
000003f0: c8c7 ddbc 60ee ffbc e108 d83d f7e3 91bd

conv2d_6/Conv2D_bias f4 [64]
-0.027462682 -0.021582766 -0.012965178 -0.035319436 -0.027342455 -0.014514678 -0.028464265 -0.022154238
-0.02121738 -0.0037105684 -0.004203085 -0.012692399 -0.027075805 -0.010816334 -0.018006135 -0.014721185
-0.026788212 -0.011171242 -0.022641163 -0.01653837 -0.0016782521 -0.011449213 0.0070192046 -0.021030681
-0.0194552 -0.009611372 -0.011514266 -0.013822954 -0.004417526 -0.03750581 -0.00019404777 -0.007411062
0.007956645 -0.013576442 -0.025300337 -0.00947436 0.0010295092 -0.018771138 -0.008014879 -0.01906663
-0.0020086123 -0.02444995 -0.017113427 -0.015908318 -0.029848555 -0.028235441 -0.033273086 -0.0091225235
-0.03488465 -0.017248739 -0.021953212 0.00036032594 -0.009540673 -0.008453455 -0.010366512 0.010493194
-0.02651899 -0.011887333 -0.018798303 -0.01343524 -0.0062551335 -0.0171033 -0.025302414 -0.004579868
00000000: 6bf9 e0bc 57ce b0bc e66b 54bc 1dab 10bd
00000010: 49fd dfbc f9ce 6dbc e42d e9bc ce7c b5bc
00000020: 12d0 adbc 022d 73bb 08ba 89bb c8f3 4fbc
00000030: 14ce ddbc fe36 31bc 9a81 93bc 2031 71bc
00000040: f472 dbbc 9607 37bc f679 b9bc 7a7b 87bc
00000050: ccf8 dbba 7b95 3bbc 5b01 e63b 8948 acbc
00000060: 8360 9fbc 0479 1dbc 55a6 3cbc ac79 62bc
00000070: e5c0 90bb b19f 19bd 4d79 4bb9 7ed8 f2bb
00000080: 975c 023c ba6f 5ebc a742 cfbc 593a 1bbc
00000090: 99f0 863a eec5 99bc d750 03bc 9f31 9cbc
000000a0: eca2 03bb 434b c8bc 7531 8cbc 2952 82bc
000000b0: f584 f4bc 034e e7bc 5c49 08bd a376 15bc
000000c0: 35e3 0ebd 3a4d 8dbc 39d7 b3bc 21ea bc39
000000d0: 7c50 1cbc 5c80 0abc 4ed8 29bc a5eb 2b3c
000000e0: 5a3e d9bc 17c3 42bc e6fe 99bc 7b1f 5cbc
000000f0: ddf7 ccbb 381c 8cbc 0247 cfbc b812 96bb

conv2d_6/kernel f4 [64, 3, 3, 64]
0.09813242 -0.0011155186 0.036879554 -0.09322376 0.02439542 -0.025319617 -0.042793255 -0.03851667
0.00036178788 -0.053668033 0.0072905836 0.088298604 0.03584392 0.04808577 -0.02870578 -0.03326715
-0.00063417 -0.06573313 0.0234375 -0.07449997 0.07929423 0.0031493688 -0.08482285 0.086173646
0.12409862 -0.11168516 0.07718345 0.011826935 -0.01040307 -0.027783714 0.012762963 -0.054009765
0.03551588 -0.06319348 -0.02068467 -0.022179283 0.063855655 -0.033550773 0.014968698 -0.025908757
0.019309299 0.06481737 -0.026406057 0.013545415 0.054612678 -0.028119618 0.0057514994 0.066846035
-0.019588878 0.03763132 0.051386505 -0.07392699 0.01974636 0.05573731 -0.08191712 -0.08370239
-0.054299064 -0.08018169 -0.03226483 -0.075366326 0.010216677 0.0525349 -0.011842121 0.038855426
-0.044793278 -0.048029248 -0.0389212 -0.030208504 -0.0050625657 -0.06709941 0.013915511 -0.0030546547
-0.054541085 -0.010949626 -0.039311826 0.040071186 -0.005263238 -0.03756316 0.053458367 0.053871576
-0.017225878 0.010662398 -0.025868531 -0.048700254 0.016082829 -0.07098762 0.028372476 -0.04965813
1.0727774e-05 -0.0034600138 0.08133964 0.08617902 0.030710826 -0.013495142 -0.0009322671 0.043175653
0.07061385 0.0068834485 0.027501706 -0.010509827 -0.08893762 0.0044604 -0.036400437 0.01314994
-0.03186375 0.014644471 0.02226464 -0.035265602 -0.05409385 0.0076659806 -0.004372077 0.06580298
-0.009324879 0.038532093 -0.053646076 -0.021056373 0.067488626 0.0037086657 0.05180264 -0.03246156
0.09331876 0.049763802 -0.052761964 -0.051929608 0.020688402 0.059215646 -0.08501391 0.02737057
-0.0792839 0.06927395 -0.0289534 -0.010305769 -0.101866454 0.046759877 0.1071839 -0.06864173
-0.098796315 -0.101125866 0.04622603 -0.04274507 -0.035429973 0.032096554 -0.04294948 0.018477721
-0.0050723413 -0.047619846 0.0012369396 -0.03526867 0.0536898 0.030198162 -0.03953644 -0.02771994
0.11072062 0.022623451 -0.049873147 -0.01642681 0.022400593 -0.055147324 0.10995058 -0.012566338
0.029680684 0.06091559 0.120909706 0.008930033 0.021751683 -0.041994553 0.030767255 -0.026466966
-0.0586959 -0.02399735 -0.0018508066 -0.015856164 0.023579294 0.01935811 -0.007827886 0.029119207
0.03525105 -0.041583043 -0.0042257104 -0.059873264 0.013993865 0.056517236 0.08615862 0.021859748
0.029781723 -0.007245134 0.047777716 0.007704706 -0.021959627 -0.10859193 0.006292017 -0.02007272
0.046429522 -0.05436629 0.08252664 -0.12308741 -0.07233602 -0.08030125 -0.05413503 -0.046335127
-0.106591746 -0.035058517 -0.028263733 -0.061620414 0.0795918 0.021263465 0.07655167 -0.010995363
-0.035775986 0.03466279 0.003948098 0.07754929 -0.078149475 0.022381881 0.038357474 0.035243407
-0.07442538 -0.015999688 -0.025665144 0.046789322 0.07520703 -0.045947798 -0.05785504 0.046395738
-0.07133873 -0.022283148 -0.023581455 -0.042894393 0.043666996 -0.0362643 -0.086549096 0.11124791
0.016156865 0.04456378 -0.07935968 -0.14266826 -0.026037715 -0.022885151 -0.07074751 0.07317012
0.06303823 -0.06472665 -0.0012047188 -0.036286414 -0.077579215 0.117202915 0.07667544 0.0539477
0.01903244 -0.07500661 0.076448485 0.036658354 -0.05244569 -0.014896197 -0.031866454 -0.09735109
00000000: a6f9 c83d 9836 92ba 040f 173d 19ec bebd
00000010: e7d8 c73c 166b cfbc fb47 2fbd a8c3 1dbd
00000020: 59ae bd39 03d3 5bbd d9e5 ee3b e6d5 b43d
00000030: 13d1 123d 96f5 443d 6228 ebbc 2343 08bd
00000040: 6e3e 26ba 179f 86bd 0000 c03c 7193 98bd
00000050: 0365 a23d a465 4e3b 9ab7 adbd cf7b b03d
00000060: 6b27 fe3d 30bb e4bd 5b12 9e3d c3c5 413c
00000070: a371 2abc ac9a e3bc bf1b 513c 5839 5dbd
00000080: 1979 113d 956b 81bd e672 a9bc 54b1 b5bc
00000090: c1c6 823d 896c 09bd 453f 753c 9a3e d4bc
000000a0: 892e 9e3c f8be 843d 8451 d8bc 97ed 5d3c
000000b0: 8bb1 5f3d 1d5b e6bc 1377 bc3b 93e6 883d
000000c0: db78 a0bc 4d23 1a3d a87a 523d 0967 97bd
000000d0: 1ec3 a13c ce4c 643d 2ac4 a7bd 296c abbd
000000e0: b268 5ebd 4c36 a4bd 2028 04bd a959 9abd
000000f0: d963 273c d62e 573d 7505 42bc de26 1f3d
00000100: 2879 37bd 51ba 44bd d66b 1fbd d377 f7bc
00000110: e1e3 a5bb 6a6b 89bd e2fd 633c 9a30 48bb
00000120: 7966 5fbd 0f66 33bc 7005 21bd af21 243d
00000130: 3e77 acbb d4db 19bd 29f7 5a3d 71a8 5c3d
00000140: 491d 8dbc 57b1 2e3c 3eea d3bc eb79 47bd
00000150: 23c0 833c f561 91bd 656d e83c 5366 4bbd
00000160: 70fb 3337 66c1 62bb 6695 a63d a07e b03d
00000170: 4595 fb3c ba1a 5dbc 6363 74ba f4d8 303d
00000180: ff9d 903d 8d8e e13b 424b e13c 6931 2cbc
00000190: ed24 b6bd 8c28 923b a018 15bd d972 573c
000001a0: 9083 02bd 5def 6f3c 5664 b63c aa72 10bd
000001b0: 8391 5dbd e832 fb3b a443 8fbb b6c3 863d
000001c0: 61c7 18bc d4d3 1d3d fdbb 5bbd 6a7e acbc
000001d0: 7a37 8a3d 160d 733b 012f 543d 6af6 04bd
000001e0: e81d bf3d 21d5 4b3d ee1c 58bd 24b4 54bd
000001f0: b97a a93c 1b8c 723d c61b aebd 3f38 e03c
00000200: 995f a2bd 80df 8d3d ae2f edbc 87d9 28bc
00000210: 5c9f d0bd 4987 3f3d 3c83 db3d 0994 8cbd
00000220: b955 cabd 141b cfbd 8157 3d3d 7415 2fbd
00000230: 051f 11bd ad77 033d cbeb 2fbd 975e 973c
00000240: e235 a6bb 070d 43bd ce20 a23a e275 10bd
00000250: d6e9 5b3d 2362 f73c f6f0 21bd ed14 e3bc
00000260: 7ec1 e23d d154 b93c c947 4cbd 8491 86bc
00000270: 7381 b73c 29e2 61bd c52d e13d 0be3 4dbc
00000280: e824 f33c a082 793d 829f f73d 464f 123c
00000290: 9630 b23c 7b02 2cbd 9c0b fc3c 40d1 d8bc
000002a0: 1d6b 70bd 1796 c4bc c496 f2ba c9e4 81bc
000002b0: 5d29 c13c e694 9e3c 8940 00bc 678b ee3c
000002c0: 6863 103d fb52 2abd d477 8abb ab3d 75bd
000002d0: 8646 653c 9e7e 673d ee73 b03d 3713 b33c
000002e0: cdf8 f33c 9768 edbb 91b2 433d c277 fc3b
000002f0: ade4 b3bc 7265 debd 442d ce3b 8b6f a4bc
00000300: e22c 3e3d 30af 5ebd ba03 a93d 4115 fcbd
00000310: e824 94bd fb74 a4bd b1bc 5dbd e7c9 3dbd
00000320: c64c dabd 8599 0fbd 5889 e7bc b065 7cbd
00000330: 0701 a33d b830 ae3c 1fc7 9c3d e525 34bc
00000340: d789 12bd 92fa 0d3d 0c5f 813b 2ad2 9e3d
00000350: d50c a0bd 355a b73c ba1c 1d3d 645b 103d
00000360: 556c 98bd c711 83bc b53f d2bc 29a6 3f3d
00000370: 2506 9a3d c233 3cbd 68f9 6cbd 7509 3e3d
00000380: 0a1a 92bd 268b b6bc e52d c1bc 08b2 2fbd
00000390: 2adc 323d e089 14bd a740 b1bd f2d5 e33d
000003a0: 675b 843c 8388 363d 5487 a2bd a117 12be
000003b0: 0c4d d5bc a479 bbbc 12e4 90bd 37da 953d
000003c0: 301a 813d 688f 84bd a8e7 9dba 10a1 14bd
000003d0: dae1 9ebd 1508 f03d 0308 9d3d 43f8 5c3d
000003e0: ebe9 9b3c 119d 99bd 0691 9c3d 1227 163d
000003f0: 4bd1 56bd 2e0f 74bc 6686 02bd 0260 c7bd

dense_4/MatMul_bias f4 [512]
0.010565794 0.007999568 -0.0407034 0.003779457 0.008127276 0.017786674 -0.023469998 0.026135113
0.029274916 -0.030565519 -0.015310067 0.015685838 0.011669117 0.016374638 -0.0019549604 -0.011864031
0.04109006 0.017951144 -0.0099641215 0.008157392 -0.0076696603 -0.01917102 0.0043621478 -0.00566113
-0.01987048 -0.0065504895 0.0019987777 0.0077019976 -0.02758717 -0.013409767 -0.006533203 0.0058410536
-0.012211369 -0.011550402 -0.052542046 -0.022233581 -0.0420824 -0.01184175 -0.014270154 0.006317111
-0.00034226742 -0.021330629 0.006465079 -0.019320268 0.028462896 0.015668679 0.006217805 0.004254771
-0.005399172 0.016730443 -0.03070667 0.047361463 0.011960908 0.014121911 -0.01846804 -0.01172953
0.0006060358 0.01907614 -0.022251021 -0.0073216106 0.034814958 0.029244963 -0.021969028 0.026701668
0.009493933 -0.0143497465 0.008452679 0.014726722 -0.013650214 0.013984536 -0.045287117 0.044279378
-0.024572525 -0.011025329 -0.017546376 -0.060920093 -0.0079391785 0.0021192108 -0.02236782 -0.010536237
0.013535893 0.0035849218 0.030896176 0.027401907 -0.037767626 -0.0024525034 -0.0028326656 -0.023610609
-0.018433865 0.033498794 -0.005394688 -0.021969277 0.0068031317 -0.01708365 -0.038880046 -0.041907065
-0.03883065 -0.0044351253 0.021881182 0.009903548 -0.0010971893 -0.024703309 0.043555822 3.1069867e-06
-0.0051315296 -0.017815858 0.034493648 0.010569571 0.0041776425 0.015073543 0.040700153 -0.02543299
-0.02202148 0.0050930264 -0.037931956 -0.0057872967 -0.0047233114 -0.004616457 -0.04175628 -0.0080159865
-0.014514099 0.031279445 -0.034165673 0.0244109 0.04077926 -0.028934326 -0.045660328 0.02026076
-0.016000882 -0.012509789 0.035434518 -0.01295697 0.032982826 -0.029177807 0.028494459 -0.017168593
-0.02547839 0.030188749 -0.049800187 -0.020030089 -0.008330202 -3.511309e-05 -0.018796617 0.01960815
0.016194591 -0.023343619 0.023107756 0.005125109 -0.015634019 -4.9860137e-06 -0.028882166 0.008663342
0.017625881 -0.0074539864 0.006981589 -0.002198706 -0.006582668 0.015698047 -0.02229975 0.011441928
0.039716274 -0.02279315 -0.018845154 -0.023439862 0.051350918 0.008759445 0.0120138405 0.005742139
-0.02499783 0.030117221 0.023480179 -0.0037209468 0.019660642 -0.008524721 -0.015146873 -0.026328662
0.0072505767 -0.011648712 0.038675617 0.025359826 -0.0011077961 0.035358965 -0.015439792 -0.03936956
0.010551175 0.05737597 0.01822299 0.026206985 -0.016276192 0.01106169 0.020711688 -0.02226575
-0.0076273545 -0.023055565 0.0019652871 -0.0054623503 -0.015907291 -0.029235357 0.019509623 0.053333126
-0.0017919977 -0.006385045 0.0055798683 0.0068695797 -0.0038884806 -0.013266813 0.008350668 0.0028183411
0.039381515 0.0016718986 0.039841406 0.0020244448 -0.030655032 0.028243119 0.006762839 -0.0072192247
0.021490637 -0.01769539 0.016734881 -0.014054099 -0.028432515 0.017463207 -0.024839532 -0.021536522
0.0070405216 0.014898502 -0.023676166 0.012293503 0.017713241 -0.06938394 0.026933262 -0.007104604
-0.0040704226 0.030593773 -0.004402617 0.018654807 -0.018427053 0.0029213834 -0.03299478 -0.025799219
0.0131243635 0.0066084326 0.009367127 -0.01312941 0.014016063 -0.050677996 0.0069859587 0.00075601455
0.019059874 -0.007164092 -0.015422859 0.00068581174 0.021960422 0.0018535014 0.007920669 -0.0047595087
00000000: 271c 2d3c 9f10 033c 9cb8 26bd c4b0 773b
00000010: 4428 053c 5cb5 913c 2744 c0bc 4e19 d63c
00000020: f3d1 ef3c 8a64 fabc 13d7 7abc 967f 803c
00000030: d32f 3f3c 1b24 863c cb1e 00bb 5a61 42bc
00000040: 0d4e 283d 470e 933c 8e40 23bc 95a6 053c
00000050: c651 fbbb 8b0c 9dbc 59f0 8e3b 0081 b9bb
00000060: 6bc7 a2bc 7da5 d6bb edfd 023b 0a61 fc3b
00000070: 7dfe e1bc a4b4 5bbc 7b14 d6bb 4f66 bf3b
00000080: 3212 48bc e63d 3dbc 5436 57bd 3323 b6bc
00000090: 985e 2cbd e603 42bc 5dcd 69bc c5ff ce3b
000000a0: 5b72 b3b9 92bd aebc 03d9 d33b 8a45 9ebc
000000b0: 052b e93c 9a5b 803c bbbe cb3b 9b6b 8b3b
000000c0: 8aeb b0bb 480e 893c 8e8c fbbc 18fe 413d
000000d0: aff7 433c 965f 673c 494a 97bc 372d 40bc
000000e0: 60de 1e3a 9145 9c3c c647 b6bc 1fea efbb
000000f0: 219a 0e3d 2293 ef3c 64f8 b3bc 75bd da3c
00000100: 718c 1b3c 331b 6bbc 1b7d 0a3c 5948 713c
00000110: 26a5 5fbc 651f 653c fc7e 39bd 4b5e 353d
00000120: 524c c9bc 95a3 34bc 6bbd 8fbc 5987 79bd
00000130: 5413 02bc 75e2 0a3b b83c b7bc 2ea0 2cbc
00000140: a6c5 5d3c 02f1 6a3b fa19 fd3c f779 e03c
00000150: 3ab2 1abd 2eba 20bb 3ea4 39bb 096b c1bc
00000160: 9e02 97bc 0836 093d ecc5 b0bb eaf8 b3bc
00000170: ceec de3b 03f3 8bbc af40 1fbd bea6 2bbd
00000180: e30c 1fbd 8754 91bb 2a40 b33c 7e42 223c
00000190: 90cf 8fba 985e cabc 9767 323d a081 5036
000001a0: 6426 a8bb 90f2 91bc 3649 0d3d fe2b 2d3c
000001b0: 9be4 883b 06f7 763c 34b5 263d d958 d0bc
000001c0: 6466 b4bc 67e3 a63b 8a5e 1bbd 5da3 bdbb
000001d0: 02c6 9abb a645 97bb a208 2bbd 7c55 03bc
000001e0: 8bcc 6dbc e01e 003d 4ef1 0bbd 5ef9 c73c
000001f0: 2708 273d ae07 edbc 5306 3bbd e5f9 a53c
00000200: 4814 83bc dcf5 4cbc c923 113d 7949 54bc
00000210: 0019 073d 4c06 efbc 366d e93c 26a5 8cbc
00000220: 0eb8 d0bc 654e f73c 48fb 4bbd 2416 a4bc
00000230: 667b 08bc 6546 13b8 5dfb 99bc 45a1 a03c
00000240: 85aa 843c 1e3b bfbc 7a4c bd3c 88f0 a73b
00000250: ea12 80bc 884d a7b6 4b9a ecbc b1f0 0d3c
00000260: 2764 903c 9240 f4bb d0c5 e43b 2a18 10bb
00000270: 6cb3 d7bb 3199 803c f7ad b6bc ed76 3b3c
00000280: 88ad 223d b3b8 babc 2761 9abc f404 c0bc
00000290: 5755 523d c683 0f3c b3d5 443c 8e28 bc3b
000002a0: 40c8 ccbc 64b8 f63c 8159 c03c 21db 73bb
000002b0: 5b0f a13c 45ab 0bbc 972a 78bc 35af d7bc
000002c0: 3f96 ed3b 3dda 3ebc 536a 1e3d 69bf cf3c
000002d0: 7833 91ba 90d4 103d 2ef7 7cbc fa41 21bd
000002e0: d6de 2c3c 1103 6b3d 6148 953c 08b0 d63c
000002f0: a655 85bc 173c 353c 8fab a93c aa66 b6bc
00000300: e3ee f9bb 06df bcbc 0ccc 003b 84fd b2bb
00000310: 0250 82bc fd7e efbc a5d2 9f3c d673 5a3d
00000320: 77e1 eaba a439 d1bb 54d7 b63b 361a e13b
00000330: e1d5 7ebb 0c5d 59bc 3dd1 083c ebb3 383b
00000340: 834e 213d 9c23 db3a be30 233d 8cac 043b
00000350: 4320 fbbc 1d5e e73c ce9a dd3b 3f8f ecbb
00000360: 220d b03c ecf5 90bc 9717 893c 2a43 66bc
00000370: 4eeb e8bc 000f 8f3c 467c cbbc 5c6d b0bc
00000380: 2db4 e63b d918 743c 85f4 c1bc b06a 493c
00000390: 5c1b 913c 2b19 8ebd 25a3 dc3c bdcd e8bb
000003a0: 2e61 85bb cb9f fa3c d443 90bb f7d1 983c
000003b0: 55f4 96bc ae74 3f3b 8925 07bd e258 d3bc
000003c0: 9207 573c 8d8b d83b 9478 193c bd1c 57bc
000003d0: a1a3 653c bb93 4fbd 78ea e43b 472f 463a
000003e0: 7423 9c3c c2c0 eabb 29b0 7cbc 0cc8 333a
000003f0: 58e6 b33c 30f1 f23a b2c5 013c a7f5 9bbb

dense_4/kernel/transpose f4 [512, 64]
0.11310775 0.031434115 0.07010472 0.035555363 0.08963066 0.07423684 0.03161657 0.11887161
-0.00067394064 0.016740527 -0.06636239 -0.026641803 0.05734525 0.06088907 0.02116659 -0.013045816
0.06459019 0.029948084 -0.07818883 0.024291862 -0.12470773 -0.005533466 0.029067602 -0.05061763
-0.006860947 0.08879152 0.08069729 -0.08165543 -0.11517442 0.049908742 -0.036799062 0.09779748
-0.03478487 0.06136117 0.10165523 -0.018810239 0.017285096 0.048320085 -0.08876657 -0.09888206
0.032030467 -0.09211512 -0.07726132 0.026970958 0.10876399 0.07122617 -0.011538813 -0.03920663
0.06227883 -0.060231104 0.035874892 -0.06150302 0.13447437 0.04986305 0.040814925 0.040940985
0.1289667 0.09399314 -0.09427759 -0.07325449 0.034341656 0.019784128 -0.044145085 0.044987306
-0.021170337 -0.0009541678 -0.07776496 0.008476074 -0.05052968 -0.08833612 0.066217504 0.06839112
-0.14623892 0.007903195 0.07729525 -0.08811544 -0.064318135 -0.056900825 0.037992604 0.0015729315
-0.041087594 0.06758772 0.045245875 -0.050671197 -0.0062698643 -0.073024206 -0.00065077515 -0.008319221
-0.065546155 0.061941884 0.03376194 -0.14287814 0.04056687 0.045430575 -0.054803755 0.007845093
-0.03919909 0.058105472 -0.15757453 -0.11122522 -0.09214596 0.06628168 -0.037206326 -0.115660734
0.107845634 0.019091837 -0.1319027 0.107045956 -0.100581065 0.03173576 -0.096146755 -0.039703697
-0.10317976 -0.099959366 -0.023574455 0.010987736 -0.07904376 0.0076851114 0.03244161 -0.052334756
-0.14608482 0.07627103 -0.12036439 0.027006943 -0.04292402 0.09267561 0.07555961 0.00854885
-0.008243435 -0.111636385 0.072637975 -0.054505467 0.008358364 0.13048932 0.03802114 -0.1218675
0.100617915 0.0604967 -0.03612156 0.15539114 0.021490678 0.040538028 0.016303012 -0.059174117
-0.006820297 -0.11950107 -0.010190239 -0.05449932 -0.08535728 0.035508793 0.07501111 0.025387181
0.09898066 0.0021413637 -0.11571122 0.16012554 0.0035760654 0.12670852 -0.072175086 -0.063850135
0.04276262 0.0066406457 0.09639324 0.04753422 -0.07281813 0.012316022 0.111972064 -0.02516106
-0.077611126 -0.0766477 0.12778294 -0.03353281 0.001426857 0.08008513 0.045433395 0.030037984
0.018180223 -0.032423142 0.043856584 0.09628676 -0.14253557 -0.01302544 -0.06265316 0.034335352
0.11938449 0.11976251 0.14224729 0.005162118 0.14001863 -0.03822484 0.04746657 0.025819574
-0.0330744 -0.14126864 0.08772957 0.09409099 -0.050774403 -0.018036872 0.06419906 0.11238694
-0.04385588 -0.08913265 -0.013328136 -0.0504917 -0.057778873 -0.12550196 -0.025183674 0.0918735
-0.023684524 -0.15386151 0.08878465 -0.0060526305 -0.055326015 0.07362582 -0.028959785 0.065879986
0.013248179 -0.08692189 0.048878685 -0.07764227 0.050029866 -0.04597765 -0.028465655 -0.03628817
-0.059507575 0.009240446 -0.035258774 0.030081544 -0.0850606 -0.033570785 -0.004857776 -0.10781314
-0.036502186 -0.062151823 -0.07164385 0.0030890042 0.06931351 0.045569655 -0.010026938 -0.058047052
-0.09247376 -0.144987 0.09797165 0.05842138 0.10876122 0.07992152 0.089687645 0.053279348
0.09281548 -0.014419499 -0.13689177 -0.050653186 -0.15437919 0.012639354 0.073728524 0.119978644
00000000: 09a5 e73d 0fc1 003d 1093 8f3d 80a2 113d
00000010: 4890 b73d 7c09 983d 6080 013d f572 f33d
00000020: 64ab 30ba 6e23 893c 01e9 87bd e93f dabc
00000030: dae2 6a3d d166 793d 8e65 ad3c 1ebe 55bc
00000040: dd47 843d af55 f53c 7721 a0bd baff c63c
00000050: c466 ffbd 1452 b5bb 2e1f ee3c 6f54 4fbd
00000060: cbd1 e0bb 54d8 b53d 9f44 a53d f63a a7bd
00000070: 91e0 ebbd 1c6d 4c3d 9dba 16bd 0c4a c83d
00000080: 947a 0ebd da55 7b3d 9e30 d03d ee17 9abc
00000090: 7999 8d3c 48eb 453d 3fcb b5bd ad82 cabd
000000a0: 6132 033d daa6 bcbd 2f3b 9ebd 33f2 dc3c
000000b0: a8bf de3d 07df 913d 4a0d 3dbc 2297 20bd
000000c0: 1618 7f3d e4b4 76bd 8df1 123d 97ea 7bbd
000000d0: a6b3 093e 333d 4c3d 8d2d 273d bcb1 273d
000000e0: d90f 043e 7a7f c03d 9c14 c1bd 7306 96bd
000000f0: d6a9 0c3d 5312 a23c 7ad1 34bd 9c44 383d
00000100: 6a6d adbc 1e21 7aba 3c43 9fbd 3bdf 0a3c
00000110: 36f8 4ebd 91e9 b4bd 0b9d 873d a510 8c3d
00000120: a8bf 15be 677c 013c f94c 9e3d de75 b4bd
00000130: 3ab9 83bd d710 69bd 229e 1b3d d32a ce3a
00000140: 774b 28bd 6e6b 8a3d bd53 393d 9a8c 4fbd
00000150: 6f73 cdbb b78d 95bd c898 2aba 584d 08bc
00000160: 103d 86bd c6b6 7d3d f649 0a3d a64e 12be
00000170: 7229 263d 6915 3a3d e779 60bd b488 003c
00000180: 3a8f 20bd 0100 6e3d 385b 21be 0cca e3bd
00000190: 05b7 bcbd b0be 873d a965 18bd 89df ecbd
000001a0: 2cde dc3d 7c66 9c3c 8011 07be e93a db3d
000001b0: 72fd cdbd 5bfd 013d 97e8 c4bd 58a0 22bd
000001c0: e94f d3bd 7fb7 ccbd 371f c1bc e805 343c
000001d0: b2e1 a1bd 63d3 fb3b 7ee1 043d f85c 56bd
000001e0: 4297 15be fc33 9c3d 9b81 f6bd aa3d dd3c
000001f0: 19d1 2fbd b6cc bd3d ffbe 9a3d 7a10 0c3c
00000200: 790f 07bc 9ea1 e4bd 38c3 943d 2041 5fbd
00000210: 85f1 083c fe9e 053e 0ebc 1b3d ab95 f9bd
00000220: c410 ce3d 63cb 773d 33f4 13bd db1e 1f3e
00000230: 380d b03c 340b 263d e58d 853c 8f60 72bd
00000240: cc7c dfbb fabc f4bd f6f4 26bc ae3a 5fbd
00000250: cccf aebd ab71 113d 6d9f 993d c7f8 cf3c
00000260: 5fb6 ca3d 1f56 0c3b 01fa ecbd f3f7 233e
00000270: 6c5c 6a3b e1bf 013e 88d0 93bd dcc3 82bd
00000280: db27 2f3d c699 d93b d269 c53d 3eb3 423d
00000290: ac21 95bd 24c9 493c 9c51 e53d 911e cebc
000002a0: 95f2 9ebd 78f9 9cbd 88d9 023e b359 09bd
000002b0: 6005 bb3a ac03 a43d 5e18 3a3d 3812 f63c
000002c0: b1ee 943c 21ce 04bd f6a2 333d fe31 c53d
000002d0: d8f4 11be a868 55bc 4d50 80bd 3aa3 0c3d
000002e0: db7f f43d 0c46 f53d 46a9 113e fc26 a93b
000002f0: 0b61 0f3e a691 1cbd 4e6c 423d 9283 d33c
00000300: 0679 07bd baa8 10be 90ab b33d c7b2 c03d
00000310: d2f8 4fbd 10c2 93bc cc7a 833d 202b e63d
00000320: 39a2 33bd 2e8b b6bd 415e 5abc 63d0 4ebd
00000330: 8aa9 6cbd 9683 00be fe4d cebc 2c28 bc3d
00000340: 0c06 c2bc df8d 1dbe bad4 b53d 2555 c6bb
00000350: 889d 62bd 22c9 963d 123d edbc 16ec 863d
00000360: e40e 593c 1b04 b2bd 0435 483d e902 9fbd
00000370: 1eec 4c3d 0f53 3cbd ce30 e9bc e7a2 14bd
00000380: 37be 73bd 3d65 173c 816b 10bd 926d f63c
00000390: 4034 aebd 8581 09bd fb2d 9fbb 23cd dcbd
000003a0: 5183 15bd e992 7ebd 03ba 92bd e470 4a3b
000003b0: 3ef4 8d3d 3fa7 3a3d 0748 24bc bfc2 6dbd
000003c0: e262 bdbd 7977 14be 5ca5 c83d 424b 6f3d
000003d0: 34be de3d e5ad a33d 28ae b73d 723b 5a3d
000003e0: 0b16 be3d c33f 6cbc 5b2d 0cbe b779 4fbd
000003f0: 9415 1ebe 4b15 4f3c fbfe 963d 5db7 f53d

dense_5/MatMul_bias f4 [128]
0.06566322 0.032403715 0.0056945016 0.044379093 -0.0038749017 0.012615448 0.013967668 0.013038484
0.0021292106 0.04091357 0.05711781 0.035838902 0.015852159 0.009718722 0.008911179 0.049903102
-0.011875382 -0.0012245107 -0.00941446 -0.0053578103 0.015766058 0.040962473 0.028792175 0.013586048
0.01704925 0.0329829 0.010102589 0.022675702 -0.00016434421 0.00047193572 0.03186813 0.0075943926
0.026428837 0.012292339 0.015984315 -0.0012376471 0.014766583 0.020325795 0.020403355 -0.0066361134
0.02886129 -0.008049718 0.02140401 0.03371284 0.02317595 0.030553982 0.004436571 0.0022696413
0.014712426 0.016916253 0.0070777307 -0.0062184604 -0.0076948777 0.03784808 -0.0013179478 -0.026349658
0.022182444 0.00911339 -0.0139350435 0.04148178 0.016760623 -0.0023122143 -0.0016755164 0.007569249
0.014660082 0.03871747 0.05334605 0.028140236 0.009985986 0.04973193 0.009761035 0.006583822
-0.008368758 0.041257605 0.017172359 0.010798698 -0.0073823766 0.014845276 -0.018723464 0.01599924
0.0016724244 0.044571765 0.016172701 0.005305669 0.013720412 0.06183214 -0.0031249912 -0.0005775259
0.009955463 -0.019789618 0.02871931 0.022421228 0.008321759 0.028670644 0.052676376 0.0003626147
0.017354324 0.017578708 -0.030114658 0.05098139 0.011660782 0.026025439 0.015372329 0.02125759
0.02286152 0.010041821 0.019870883 2.057636e-05 0.025212228 0.07246437 0.013620366 -0.0009648734
0.02121627 0.02546408 0.03411878 0.006241214 -0.00878694 0.032950614 0.062424347 0.029878547
0.007007357 0.0077036954 0.005241908 0.027771909 0.025917815 0.026049186 0.0043244893 0.007830407
00000000: 707a 863d c2b9 043d f198 ba3b dac6 353d
00000010: 10f2 7dbb 06b1 4e3c a5d8 643c 5e9f 553c
00000020: 3a8a 0b3b fd94 273d 5df4 693d d0cb 123d
00000030: 63dc 813c 463b 1f3c 3200 123c 3267 4c3d
00000040: f690 42bc c37f a0ba 1b3f 1abc 9290 afbb
00000050: d227 813c 44c8 273d 91dd eb3c 0498 5e3c
00000060: deaa 8b3c 1419 073d 5485 253c 65c2 b93c
00000070: d053 2cb9 246e f739 2888 023d 62da f83b
00000080: 4a81 d83c ce65 493c 8af1 823c 8c38 a2ba
00000090: 8aef 713c 4882 a63c f024 a73c c173 d9bb
000000a0: 836e ec3c f7e2 03bc 7657 af3c 7a16 0a3d
000000b0: 7ddb bd3c 584c fa3c a860 913b 43be 143b
000000c0: 630c 713c f493 8a3c 4fec e73b 3ac4 cbbb
000000d0: 5025 fcbb 9706 1b3d fdbe acba 3ddb d7bc
000000e0: f5b7 b53c 5450 153c cf4f 64bc cde8 293d
000000f0: 934d 893c 8588 17bb 009d dbba 7607 f83b
00000100: d730 703c 3696 1e3d 6381 5a3d 5a86 e63c
00000110: 439c 233c b5b3 4b3d c0ec 1f3c 1abd d73b
00000120: 1d1d 09bc bcfd 283d 0cad 8c3c 06ed 303c
00000130: dde7 f1bb 9a39 733c f361 99bc d710 833c
00000140: 4035 db3a e290 363d 9d7c 843c 2ddb ad3b
00000150: 94cb 603c b343 7d3d a7cc 4cbb 1b65 17ba
00000160: 3d1c 233c d61d a2bc c244 eb3c b9ac b73c
00000170: fd57 083c b3de ea3c 2fc3 573d 521d be39
00000180: a82a 8e3c 3901 903c 04b3 f6bc ddd1 503d
00000190: dd0c 3f3c 4d33 d53c 39dc 7b3c 6624 ae3c
000001a0: 1548 bb3c 7386 243c 43c8 a23c 669b ac37
000001b0: e089 ce3c 3368 943d f527 5f3c 8fef 7cba
000001c0: becd ad3c 0c9a d03c 22c0 0b3d 1983 cc3b
000001d0: 19f7 0fbc 39f7 063d acb0 7f3d dbc3 f43c
000001e0: f99d e53b 486f fc3b 50c4 ab3b ea81 e33c
000001f0: 9951 d43c 1a65 d53c 72b4 8d3b 1b4b 003c

dense_5/kernel/transpose f4 [128, 512]
0.020170543 0.03349227 -0.11777843 -0.054607436 -0.09883687 0.062281482 0.054882016 0.03690609
-0.048740026 -0.0746846 -0.0025545494 -0.09160352 0.0103877485 0.10535949 -0.046677206 0.0049841404
-0.025014699 -0.009016048 -0.06944538 -0.034708615 -0.080495365 -0.06135502 0.04806296 -0.012719895
0.020287395 -0.026425216 0.0022804523 -0.12645905 -0.12587585 -0.083583154 0.025423493 0.010245008
-0.004380911 0.06466151 -0.13635394 -0.003949044 0.003976897 0.031082813 0.071504176 -0.019699972
-0.11585447 -0.10562538 0.019458152 0.043095503 -0.019887196 0.023091258 0.12485432 0.06949171
0.013128471 0.09753183 -0.048146024 0.0727333 -0.06333522 -0.0024631566 -0.03674985 -0.14423537
-0.103363454 0.062969014 -0.086555734 -0.013097107 0.1309434 -0.059675403 -0.06344496 0.12507008
0.0417194 -0.06315948 0.110052414 -0.032753494 -0.051281273 0.08532259 0.009476368 0.00039326254
-0.06774279 -0.080456205 0.023631921 -0.08481335 -0.0619745 0.0067425068 0.004924984 -0.018283289
-0.044299327 -0.12353321 0.01712455 0.08001703 -0.07995111 -0.04911445 0.034646835 -0.028935438
0.03703206 0.13971314 0.023306938 -0.03770198 0.118316956 -0.027197624 -0.08066318 -0.07457937
-0.026742572 -0.087266244 0.020641044 0.017872315 0.034708917 0.06891441 0.01180706 0.048925027
0.010489206 -0.025445905 0.09462713 -0.08785516 0.018274752 0.1207693 0.11588506 0.02310825
-0.026556473 -0.04541586 0.024613367 0.0066790963 0.038674477 -0.03638276 -0.0023332892 -0.018495573
-0.13458133 0.0011035231 0.009541577 0.002890598 0.05202843 -0.024614178 -0.09713977 0.021492187
-0.022152537 -0.10067918 -0.013167657 0.012717835 0.055896454 -0.078361996 -0.08709099 0.0026972766
-0.09495896 0.0552859 0.014933708 -0.011626501 0.06261851 -0.0120084705 -0.059814252 -0.07288053
0.05206962 -0.026991468 0.09966808 0.02677155 -0.071514465 -0.1280138 0.0111224 -0.016269742
-0.053034157 -0.047335967 0.033046372 -0.024922187 -0.015014819 -0.043110322 0.046218865 -0.004244756
0.041277792 -0.1025854 -0.041062247 -0.15458058 0.10519231 0.042919602 0.0014858289 0.108743384
0.06933172 0.054244347 0.06346194 -0.060979076 0.107961245 -0.06893913 -0.04740673 5.1462575e-05
0.074859746 -0.06988965 0.04978814 -0.027096372 0.06298834 -0.018621877 0.019376937 -0.032528307
0.022117995 0.0058105914 0.0300456 0.048833214 -0.065704174 -0.055748288 0.014028431 0.07042198
0.07384576 -0.059746955 -0.09167321 0.05507882 0.087334454 -0.10786326 0.048681337 -0.08855274
0.1168929 -0.0053195995 0.030693784 0.0064637144 0.061514895 -0.06898067 -0.005948807 0.11003998
0.03432499 0.016715543 0.053402513 0.0009585733 -0.045388103 0.0744464 0.07017387 -0.05680204
0.09067956 0.046606954 0.02904529 -0.011709403 -0.027247982 0.08907287 -0.049581125 -0.034171868
0.060646385 -0.10756016 -0.091255374 -0.026875893 0.050201993 -0.083987206 0.008617832 0.01025478
-0.06605529 -0.08962768 -0.004326742 0.07622172 -0.06956042 0.029317161 -0.039022636 -0.05790263
0.11606348 0.00074425276 -0.08490988 0.05028086 0.13650896 -0.12138575 -0.020345235 -0.101606116
0.0025235051 -0.043576613 -0.02545449 -0.024519142 -0.009712059 0.00064857583 -0.0453853 0.022296643
00000000: b23c a53c 312f 093d d135 f1bd 0cac 5fbd
00000010: fc6a cabd de1a 7f3d f7cb 603d d72a 173d
00000020: 9fa3 47bd 3df4 98bd 3a6a 27bb a09a bbbd
00000030: 6031 2a3c b7c6 d73d 9930 3fbd 0052 a33b
00000040: a0eb ccbc 0cb8 13bc 6139 8ebd 9f2a 0ebd
00000050: c1da a4bd 674f 7bbd abdd 443d 1b67 50bc
00000060: c031 a63c b279 d8bc a473 153b 7b7e 01be
00000070: 99e5 00be a52d abbd ee44 d03c aeda 273c
00000080: bf8d 8fbb 416d 843d 5ea0 0bbe fb66 81bb
00000090: a150 823b 62a1 fe3c c870 923d d661 a1bc
000000a0: 1c45 edbd 1f52 d8bd b466 9f3c e984 303d
000000b0: 79ea a2bc e129 bd3c 9fb3 ff3d ab51 8e3d
000000c0: cc18 573c c5be c73d c434 45bd 32f5 943d
000000d0: e5b5 81bd e96c 21bb 0387 16bd 70b2 13be
000000e0: 38b0 d3bd e6f5 803d 2244 b1bd 4095 56bc
000000f0: 0716 063e 326e 74bd 6eef 81bd 5f12 003e
00000100: f6e1 2a3d c259 81bd 2963 e13d 8728 06bd
00000110: 500c 52bd 9cbd ae3d c542 1b3c ce2e ce39
00000120: bbbc 8abd 39c6 a4bd bb97 c13c 9fb2 adbd
00000130: f9d8 7dbd 3ff0 dc3b c361 a13b d6c6 95bc
00000140: 3673 35bd fbfe fcbd c948 8c3c f8df a33d
00000150: 68bd a3bd 3c2c 49bd d7e9 0d3d 030a edbc
00000160: eeae 173d f610 0f3e 31ee be3c 646d 1abd
00000170: 2950 f23d 8dcd debc bd32 a5bd 12bd 98bd
00000180: 3d13 dbbc a5b8 b2bd 6817 a93c f668 923c
00000190: f02a 0e3d 0023 8d3d 6672 413c 9c65 483d
000001a0: ebda 2b3c ee73 d0bc decb c13d 68ed b3bd
000001b0: efb4 953c e555 f73d 2555 ed3d 834d bd3c
000001c0: f68c d9bc fb05 3abd f9a1 c93c 52dc da3b
000001d0: 2169 1e3d 1706 15bd 19ea 18bb 0784 97bc
000001e0: b0cf 09be 17a4 903a 4654 1c3c 3070 3d3b
000001f0: c31b 553d aca3 c9bc 37f1 c6bd 6210 b03c
00000200: 3d79 b5bc e330 cebd 28bd 57bc 775e 503c
00000210: aef3 643d 417c a0bd c35c b2bd cbc4 303b
00000220: d879 c2bd 7873 623d 83ac 743c 147d 3ebc
00000230: 223e 803d 2dbf 44bc caff 74bd 6342 95bd
00000240: f446 553d 361d ddbc c71e cc3d 0250 db3c
00000250: 2d76 92bd 0d16 03be ba3a 363c 1f48 85bc
00000260: 583a 59bd 5ce3 41bd a25b 073d 9d29 ccbc
00000270: b700 76bc 7394 30bd fe4f 3d3d 9817 8bbb
00000280: e712 293d 4b18 d2bd e330 28bd 5f4a 1ebe
00000290: 116f d73d 77cc 2f3d 25c0 c23a dab4 de3d
000002a0: cafd 8d3d 522f 5e3d 55f8 813d 32c5 79bd
000002b0: c91a dd3d f52f 8dbd 8f2d 42bd 85d9 5738
000002c0: 1150 993d 4e22 8fbd a6ee 4b3d 36f9 ddbc
000002d0: 0800 813d e88c 98bc 62bc 9e3c 673c 05bd
000002e0: cc30 b53c c666 be3b 3122 f63c 5605 483d
000002f0: e98f 86bd 5158 64bd 81d7 653c 6639 903d
00000300: 723c 973d 39b9 74bd 2abf bbbd 549a 613d
00000310: 68dc b23d 6ae7 dcbd 1566 473d 245b b5bd
00000320: 8b65 ef3d 0950 aebb 8871 fb3c 91cd d33b
00000330: 0bf7 7b3d bd45 8dbd 36ee c2bb a45c e13d
00000340: 5c98 0c3d 09ef 883c 98bc 5a3d c448 7b3a
00000350: e0e8 39bd 5b77 983d 51b7 8f3d 42a9 68bd
00000360: 35b6 b93d efe6 3e3d 63f0 ed3c ccd8 3fbc
00000370: 2937 dfbc d66b b63d 9415 4bbd cdf7 0bbd
00000380: 5868 783d 8048 dcbd 19e4 babd d52a dcbc
00000390: 9ba0 4d3d 7c01 acbd cf31 0d3c aa03 283c
000003a0: ff47 87bd b88e b7bd 58c7 8dbb 221a 9c3d
000003b0: b275 8ebd 8b2a f03c 33d6 1fbd 4f2b 6dbd
000003c0: b1b2 ed3d f519 433a 3be5 adbd 4ef3 4d3d
000003d0: 01c9 0b3e 1899 f8bd 0dab a6bc de16 d0bd
000003e0: 6461 253b 647d 32bd ef85 d0bc 5edc c8bc
000003f0: 541f 1fbc 3005 2a3a f0e5 39bd 73a7 b63c

dense_6/MatMul_bias f4 [5]
0.036735687 -0.05052349 0.018064387 -0.024190148 0.008934731
00000000: 2978 163d b8f1 4ebd c4fb 933c 6b2a c6bc
00000010: fa62 123c
